checkpoint.pth (torch_old, 28447 bytes, 6 tensors)

fc1.weight f4 [64, 37]
000000 8b 8f 99 bc 30 fe 5f bd f3 33 4d 3c ac 77 8a bd
       -0.018745204 -0.05468577 0.012524593 -0.06761107
000010 87 20 dd bd dc 99 8a 3d 8c 18 ed bc 28 cc af 3d
       -0.1079722 0.067676276 -0.028942369 0.085838616
000020 7f b8 49 3e ec 03 3b bd 36 78 99 bd 54 7e db bc
       0.19699286 -0.045658037 -0.074936315 -0.026793636
000030 7a 44 9c bd ad 72 20 be 0e 88 84 3e dd f7 56 bd
       -0.07630248 -0.15668745 0.2588505 -0.052482475
000040 85 83 02 3e 66 81 81 3b 30 b6 f3 bd e5 5b 24 be
       0.12745483 0.003952193 -0.11899984 -0.1605068
000050 6b a3 23 3e 0f fa a8 bc a9 f5 27 3c 6f 11 2f 3d
       0.15980308 -0.02062705 0.010251441 0.042741235
000060 8b 28 0b 3d d6 ec 56 3d 12 5c d6 bc 88 a1 44 bd
       0.03397421 0.052471958 -0.02616695 -0.04800561
000070 c8 a6 c2 bd 61 4e a9 be 6c 65 87 bd 9b 63 17 3e
       -0.09504467 -0.3306761 -0.066111416 0.1478409
000080 a8 95 c3 bd f1 cb fe bd 68 21 02 be d1 66 56 be
       -0.09550029 -0.124412425 -0.12708056 -0.20937659
000090 07 ce 2e bd 56 a3 78 3e 94 97 66 3d dc 3d b1 3a
       -0.04267695 0.24281058 0.0562969 0.0013522464
0000a0 a7 36 03 3e 7b b9 79 bd 20 a5 84 3d 9f 5e d7 bd
       0.12813817 -0.060967904 0.064768076 -0.105160944
0000b0 16 77 b7 bd 69 de 44 be 6f b3 ae bd 15 18 94 3d
       -0.08958261 -0.19225468 -0.08530318 0.07231156
0000c0 98 6a a1 ba 4b a7 2a 3c b8 82 34 3e 4a 9a a1 3c
       -0.0012315093 0.010415862 0.1762799 0.019726891
0000d0 4c 86 45 3d e5 53 e7 3c e6 fc 62 3d 14 c6 1a 3e
       0.04822378 0.028238246 0.055416964 0.15114623
0000e0 1d cd 77 3e ca 44 96 bd 66 9f af bd 7a 04 60 bd
       0.24199338 -0.07337339 -0.08575325 -0.05469177
0000f0 0e 40 f9 bb 01 fa 27 3d f5 02 fc 3d 27 72 fd 3a
       -0.007606513 0.041009907 0.123052515 0.0019336388
000100 b6 f1 b1 bd 3a 5a 6e be 3d a3 56 bf b0 82 bc 3b
       -0.08688681 -0.23276606 -0.8384283 0.005752884
000110 d9 a1 2b 3e c8 16 46 3c db bb 89 3e 93 88 54 3e
       0.16760959 0.012090392 0.26901135 0.20755224
000120 76 c9 ac 3c 4a 4e 82 bb 5a 3c 7f 3e 34 a9 be 3d
       0.021092158 -0.003976618 0.24925366 0.09309617
000130 6b 67 3f be f0 b5 2a 3a f4 67 2c 3e 6e 45 bd bd
       -0.18691795 0.0006512096 0.1683653 -0.09241758
000140 f7 f6 53 be f0 c0 4f 3e dc 27 91 3d 4f 46 c0 be
       -0.20699678 0.20288444 0.07087681 -0.3755364
000150 01 64 e0 3c 4d 65 d0 be d0 1f 8e 3d ae 18 0e be
       0.027391436 -0.40702286 0.069396615 -0.13876602
000160 9a 9c 95 bf c0 9d a3 be 42 46 25 3d 02 59 4f 3e
       -1.1688416 -0.3195629 0.040350206 0.20248798
000170 12 4a 9f 3d b1 74 37 3d a9 00 58 bb 48 99 8d bd
       0.077778 0.04478902 -0.0032959378 -0.06914002
000180 86 7f d6 3c e9 60 82 bb 79 1d 42 bf 3f af 16 be
       0.026183855 -0.0039788377 -0.7582622 -0.14715289
000190 b5 28 57 3e 2b d6 6c 3d c0 c3 76 be 77 d6 d9 bb
       0.21011622 0.057821434 -0.2409811 -0.0066478807
0001a0 a6 41 4d be 83 4b 0f be fa 0b 8f bc 51 fd fc bd
       -0.20044574 -0.13993649 -0.017461766 -0.12353004
0001b0 8b 9f 08 bf 4a 6c 38 be 4a aa 5c bc 50 42 69 3c
       -0.53368443 -0.18010059 -0.013468334 0.014237002
0001c0 78 69 69 be a5 81 59 3e 80 25 b0 be f0 5e 6b bf
       -0.2279414 0.21240862 -0.3440361 -0.9194174
0001d0 bc a6 a1 be 63 2a 20 bd e6 e5 df 3d c8 9e d9 be
       -0.3157252 -0.039102923 0.109325215 -0.42503953
0001e0 13 03 44 bf eb ed b4 be a1 0c 0d bd 9d 89 07 3e
       -0.7656719 -0.35337767 -0.034435872 0.13236089
0001f0 a1 ce c3 be 62 66 dd bd 1c cc f1 be d7 64 5b be
       -0.38243583 -0.108105436 -0.47226036 -0.21425186
000200 d2 29 1e 3e 4f 2c 72 be cf ef 94 bf 59 7b 58 3d
       0.1544564 -0.23649715 -1.1635684 0.05285201
000210 e2 0b aa be 0c 0c 14 be f9 7e e1 3d b6 4a 8f be
       -0.3321219 -0.1445772 0.11010546 -0.27986687
000220 53 3d c0 be 35 31 82 be 34 54 46 3e f8 60 65 bd
       -0.37546787 -0.25428167 0.19368058 -0.05600068
000230 da cc 7c bf 28 b6 5d 3d 70 23 0c 3e 55 d3 29 be
       -0.9875008 0.054128796 0.13685393 -0.16584523
000240 ad 0d ee bd 3d cd 43 be 5e 2d 6d 3e fe 08 fe 3b
       -0.11623702 -0.19121261 0.23161837 0.007752537
000250 46 9a d2 bc ae 2a fb bd 56 5d 92 bd f6 c8 04 bf
       -0.025708329 -0.12264 -0.07146709 -0.5186914
000260 5c 5c be bd 58 83 ec bd 14 08 26 3e 64 b0 4a bd
       -0.0929496 -0.11548489 0.16214019 -0.049484625
000270 65 82 7e 3d 7a 6b 94 be 34 4f 3a 3c 39 3a 53 be
       0.062136073 -0.28988248 0.011371423 -0.20627679
000280 3f 9d ab 3d c4 30 54 be 83 76 27 bf 43 64 46 be
       0.08379602 -0.20721728 -0.6541521 -0.19374184
000290 29 17 29 be 95 ab 0e 3e 9b c7 67 bd 76 ca 8d 3e
       -0.16512741 0.13932641 -0.056586843 0.27693528
0002a0 1d 68 c0 bd 1a 41 30 3d 8f c9 f3 3d 95 31 0b bd
       -0.09394858 0.043030836 0.119036786 -0.033982832
0002b0 32 aa 20 ba ae 65 fa 3d 7e 09 55 be ad d6 44 3e
       -0.00061288767 0.12226425 -0.20804402 0.19222517
0002c0 08 0b ea be 42 a6 06 bf b9 e7 21 bd db aa a5 bd
       -0.4571154 -0.5259744 -0.03952763 -0.08089229
0002d0 6f 7b 04 3c 1e 8e 81 3d cf 98 3a 3e 89 fe 9f bd
       0.0080860695 0.06325935 0.18222354 -0.078122206
0002e0 81 2e 1e 3c 02 64 a7 3c 68 1d 8a bb 22 45 27 3d
       0.009654642 0.02043343 -0.0042149313 0.040837415
0002f0 a9 a7 c4 3c 4a 42 88 3a 4e 3d 1a 3e f4 64 d4 3d
       0.024005728 0.0010395732 0.15062448 0.10370818
000300 db 8c 92 3d 11 02 df bc 31 5b ee bd cc a4 19 3d
       0.07155772 -0.027222665 -0.11638487 0.03751068
000310 f3 64 04 bd e6 42 94 3b 04 f0 30 bd 32 54 07 bc
       -0.032322835 0.0045245765 -0.043197647 -0.00825982
000320 62 87 01 3e 66 16 9a 3d 7a 36 38 bd c3 01 c9 bd
       0.126493 0.075238034 -0.044973828 -0.09814789
000330 db 89 23 be 12 6d c8 3d 41 32 26 3e 5e 19 b3 3d
       -0.15970556 0.097864285 0.16230108 0.08745073
000340 b2 7b fa 3d fa 7c c1 3b 9d b0 99 3d fe 1e b3 bb
       0.12230624 0.005904791 0.075043894 -0.005466341
000350 1f 7d eb 3c 90 d5 cb 3d d3 86 96 39 b3 3b b3 3e
       0.028746186 0.09952843 0.0002871068 0.35006484
000360 ca 7e fa be 95 a5 bc be 87 30 30 be e7 0b ba bf
       -0.48924857 -0.3684508 -0.17206012 -1.4534882
000370 57 8f b8 bc c4 6a 25 bb 9f c2 e6 3e e0 8e 1e bf
       -0.022529287 -0.002524064 0.4507036 -0.6193676
000380 79 5a e0 be ed 6e c0 be 45 0d f2 bf 43 3f 4d bd
       -0.43819025 -0.3758463 -1.89103 -0.05010916
000390 3c b7 96 3a d7 0f e0 3b 8a 90 93 3d 6e 58 22 3e
       0.00114987 0.0068378258 0.07205303 0.15854046
0003a0 25 56 a0 3d d5 7d f3 3d 23 2e fa 3d 75 92 26 3e
       0.07828931 0.11889235 0.12215831 0.16266806
0003b0 5f 76 96 3c de 95 ec bd 0a e7 8a 3d 13 ed 8a 3a
       0.01836699 -0.115520224 0.067823485 0.0010599218
0003c0 77 04 87 3d f1 f2 21 3e bb ed 21 bd fa 8f 8e bc
       0.065926485 0.15815331 -0.039533358 -0.017402638
0003d0 af 3f 6f bc 38 64 a0 3c db 54 21 3d 6b d7 e6 bd
       -0.014602586 0.019579038 0.039387565 -0.112715565
0003e0 7f 99 65 bd fe f9 61 bd 78 08 76 3c c1 2b 2e 3e
       -0.05605459 -0.05517005 0.015016668 0.17008878
0003f0 9a c8 30 bd 7c 79 94 3c 89 fc b5 3c 3e 33 18 3d
       -0.04316006 0.018124335 0.022215145 0.037158243

fc1.bias f4 [64]
000000 3d 1d fc 3d fc 38 ab bc dd be 83 bd 12 11 73 bd
       0.12310264 -0.020901196 -0.06432889 -0.05934245
000010 fe 30 3a 3e 86 3d a7 3c e5 6c 5d bd 63 d3 38 3e
       0.18182752 0.020415079 -0.054058928 0.18049388
000020 bc 0b 14 bc 87 6b cf bd 32 c2 1e 3e a6 fd 36 3e
       -0.009036001 -0.10127931 0.15503767 0.17870197
000030 d0 87 ef 3d 17 12 01 3e f7 b0 09 bd 2c dd 62 bd
       0.11695826 0.12604557 -0.033616032 -0.055386707
000040 30 b4 59 3d e1 5e 87 bd 59 ef 1a 3d a8 79 0d be
       0.053150356 -0.066098936 0.037825916 -0.1381594
000050 97 9f ad bd 34 0f bf 3d fa 58 4d 3d f3 13 ec bd
       -0.08477705 0.09329072 0.050133683 -0.115272425
000060 f0 28 05 be 07 08 4a 3e ff b5 20 bc 14 d5 40 be
       -0.13003898 0.19729625 -0.009809016 -0.18831283
000070 92 17 08 3e 86 4e 37 3e 67 5c 04 be 2c 4c cc bd
       0.13290241 0.17901048 -0.12925874 -0.09975466
000080 6d f3 59 3e 58 57 15 bc 6a 17 f0 bd f3 34 d1 3d
       0.21284266 -0.009115063 -0.11723216 0.102151774
000090 97 07 a0 bd cc 20 59 3d 58 7a e9 bb 25 54 02 bd
       -0.07813948 0.053009793 -0.00712518 -0.031818528
0000a0 4b dc 9e bd 9e fc 22 bb 89 66 0b be 9a b2 69 3e
       -0.07756861 -0.002486981 -0.13613333 0.22822037
0000b0 e6 a3 eb 3b a5 1d ef bd 3c bb 5c bd 8e 36 06 be
       0.007191169 -0.11675576 -0.053889498 -0.13106748
0000c0 b5 1e 1d be a3 8e ad bb cf c4 2b be 4a 15 96 3d
       -0.15343745 -0.0052965446 -0.16774295 0.07328279
0000d0 7a ab 36 bd a8 7f 84 bc 7b 9b f7 bd 6a 2a 83 3a
       -0.044597127 -0.016174152 -0.120902024 0.0010007147
0000e0 d4 7c 92 3d 43 be bd 3c 73 cd e9 bd 70 4c c9 bd
       0.07152715 0.023162013 -0.114161395 -0.098290324
0000f0 74 d2 1f 3d bf 6c b6 3d 26 e0 27 3d ac a5 f1 bc
       0.039019063 0.089074604 0.04098525 -0.029497944

fc2.weight f4 [64, 64]
000000 09 58 a7 bd 69 ee be 3d a9 1b d9 3e 90 f0 bf bd
       -0.08171088 0.09322817 0.42403916 -0.093720555
000010 5d fa 9c 3e b4 7e bb be 1b c4 a9 be 37 82 3c bc
       0.30659762 -0.36620104 -0.3315743 -0.011505655
000020 9d bf 68 3e 4b e0 02 3e d4 e0 6e 3b e2 c4 37 3d
       0.22729345 0.12780873 0.0036449926 0.044865496
000030 e2 5e 26 bf a4 d7 60 3e ec 30 25 be be e2 d4 be
       -0.6498853 0.2195726 -0.16131943 -0.4157924
000040 70 dd 64 be 68 b9 12 bf 7b 98 70 be 53 15 7b bc
       -0.22350097 -0.5731416 -0.23495667 -0.015324908
000050 47 2b 5e 3e 23 b4 9e 3c f9 1e 08 3e 4d f8 df 3d
       0.21696196 0.019373005 0.13293065 0.109360315
000060 1f 86 34 be e7 ea 03 bf 65 8e 69 3e a9 17 e5 bd
       -0.17629288 -0.5153031 0.22808225 -0.111861534
000070 87 a2 02 3e e5 78 34 bc c5 a9 0e bf 7f e1 46 bf
       0.12757312 -0.011015152 -0.557278 -0.7768783
000080 2f 61 e0 3e 89 61 ce 3a 43 a4 b1 3d 11 c4 92 3d
       0.43824145 0.001574562 0.086739086 0.07166303
000090 3c c4 c9 3c db 71 78 3e 46 b6 7a bc 0b c3 a8 bd
       0.024629705 0.24262182 -0.015302246 -0.082403265
0000a0 25 9a 7d 3d 76 53 70 be 7d f0 0a bc 07 85 bf 3d
       0.06191458 -0.23469338 -0.008480188 0.09351545
0000b0 49 61 10 3d a6 a1 08 be 23 5a ff bd 57 85 d9 be
       0.03524903 -0.13342914 -0.12468364 -0.42484543
0000c0 5d ff c1 3c 33 bb 29 bf b8 19 84 be 87 94 2c be
       0.023681337 -0.6630127 -0.25800872 -0.16853534
0000d0 6a cb 0d bf 18 0b 32 bf fd 86 a7 bd 37 9f 2d bd
       -0.5538851 -0.6954818 -0.08180044 -0.042388167
0000e0 e2 61 07 3d a8 d0 3b 3e d5 25 54 be 0a 8f cb 3e
       0.033052333 0.18341315 -0.20717557 0.39757568
0000f0 32 1c a5 3d 78 61 f7 3d 16 fc 19 be 47 8a 0b bf
       0.080620185 0.120791376 -0.1503757 -0.5450787
000100 d7 be fd 3d dc 35 99 3d 6a 44 e8 3d e1 1e e8 bc
       0.123899154 0.07480976 0.11341174 -0.028335037
000110 1e 7c 4a 3e 25 0a 87 3d aa e8 70 be ff ed a4 bd
       0.1977391 0.06593732 -0.23526254 -0.08053207
000120 be d8 2d be e6 ec dd ba 4f 13 37 3e eb 8e e0 bd
       -0.16977212 -0.0016931563 0.1787846 -0.109647594
000130 26 c1 d6 bd 19 d5 2d 3e 18 10 da bc ef d7 d2 3d
       -0.10486059 0.16975822 -0.026619002 0.10295092
000140 be dc 0a be 02 34 d5 bd 25 95 32 be 1d f8 a4 be
       -0.13560769 -0.1041031 -0.17439707 -0.32220545
000150 f3 d7 6a 3e 18 bb 6c be a2 2e de 3b 0c d2 b2 3c
       0.2293394 -0.23118246 0.0067804614 0.021828674
000160 48 84 f5 bd 14 a6 52 bd e2 e2 9f be 4e d7 51 be
       -0.11988121 -0.051427916 -0.31227785 -0.20492288
000170 00 08 99 bd 46 8c d4 bd c8 2c 9a be 8f 9c 84 bc
       -0.07472229 -0.103783175 -0.3011229 -0.016187934
000180 ca 83 f3 bc b7 b3 a2 3d 27 3c 82 3e 58 65 86 3e
       -0.029725928 0.07944434 0.25436518 0.26249194
000190 0d 8a b5 3d 0e 08 44 3e 49 bd b6 3d 36 67 62 bd
       0.08864222 0.19143698 0.08922822 -0.05527421
0001a0 a6 a1 82 3e 64 35 7e bd 72 a9 28 3d ec 3d 0b be
       0.25513953 -0.062062636 0.04117722 -0.1359784
0001b0 d8 de 49 bd 5e a3 6d be 01 38 db be 9c 3a 08 bd
       -0.049284786 -0.23206851 -0.42816165 -0.03325902
0001c0 66 98 27 be d0 a5 9e be a7 35 01 be d9 a5 5e 3b
       -0.16366729 -0.3098588 -0.12618123 0.0033973365
0001d0 2c 2f 92 be 4c 5a 0a be 4c 52 73 bd c3 6c c1 3d
       -0.28551614 -0.13511008 -0.059404656 0.09444573
0001e0 e9 08 10 be 9a de e8 3c f1 fa b3 3c a0 95 81 3e
       -0.14065899 0.028426457 0.021970244 0.25309467
0001f0 ac 09 a9 bb 0f 8b 30 be 4c 79 02 bd f7 bf 75 be
       -0.0051586237 -0.17240547 -0.03185396 -0.2399901
000200 96 5d 68 bd 8f e9 07 be 13 1b 22 3d ca 90 21 3e
       -0.056729876 -0.1327269 0.0395766 0.15777889
000210 47 e9 91 bd b9 3b 37 3e 8c 1d e4 bd 0d 41 68 bd
       -0.07124572 0.17893876 -0.11138448 -0.056702662
000220 2d 4a b1 3e c3 20 06 3d f7 7d 50 3d 58 c9 30 3e
       0.34626904 0.032746088 0.05090138 0.17264307
000230 99 63 c5 bc d2 35 ab 3e 36 5c 2f 3e 36 de 26 3d
       -0.024095343 0.334395 0.1712502 0.04073926
000240 1d da 03 be 70 a1 11 3e 6f 91 a2 3d 17 22 74 bd
       -0.12876172 0.1422174 0.079378955 -0.059602823
000250 4f ea 73 bc 44 b8 2e be 24 1b 80 bd cd d3 69 bd
       -0.0148874065 -0.1706248 -0.06255177 -0.057086755
000260 d1 ab 79 3d 00 fe 5e 3e 37 15 1a be 98 a2 98 3e
       0.060954873 0.21776581 -0.15047155 0.2981155
000270 f6 26 50 be 33 c7 78 3e c8 8c 2f 3d a5 8c 35 3c
       -0.20327362 0.24294738 0.04285887 0.011080896
000280 90 6c 58 be 18 61 ad bd fb 34 34 be 0f 91 b8 3e
       -0.21135163 -0.08465785 -0.17598335 0.3604817
000290 b1 ab 72 3d df 34 88 3e a4 f9 51 3e 5d f2 af bb
       0.05924577 0.26602837 0.20505387 -0.005369468
0002a0 98 9b 71 3e 83 b5 ad bb be b0 c5 3d a2 4b 62 be
       0.2359451 -0.005301179 0.096528515 -0.22099164
0002b0 8f ce 20 3d 52 f4 83 bd 57 e0 16 3d af f2 50 bd
       0.03925949 -0.06443085 0.03683504 -0.05101269
0002c0 9c 49 cf 3d 4c 47 72 be 4b 76 17 bd e7 ae b1 3b
       0.10121462 -0.2366001 -0.036978047 0.0054224613
0002d0 aa f0 a5 bd 00 f3 83 3e dc 2c fd bc e6 cf 50 3e
       -0.08102544 0.25771332 -0.03090518 0.20391807
0002e0 56 54 9a bd e2 4f c2 bd 83 cc 54 3e 07 8a 7f 3e
       -0.07535617 -0.09487893 0.2078114 0.24954997
0002f0 42 e7 2f bc 74 57 73 3d e4 95 8e be 94 26 bf 3b
       -0.0107362885 0.059409574 -0.27848732 0.0058334563
000300 96 76 70 bd c2 86 42 be f2 d8 ba 3e 81 30 13 3e
       -0.058706842 -0.18996719 0.3649364 0.14373972
000310 27 3d 10 3e de 32 8a 3d f1 49 c3 be 54 bd b4 3a
       0.14085828 0.067479834 -0.3814235 0.0013789334
000320 da ac 45 3e 1c 2f f8 3d cb 53 92 3b e4 92 27 3e
       0.19304219 0.121183604 0.0044655553 0.16364628
000330 17 f2 8a be 8c b3 b1 3e c2 1c b9 bd a0 e3 dc be
       -0.27137825 0.34707296 -0.09038688 -0.43142414
000340 1a 01 1f be a0 63 fa bd 46 95 23 3d 49 ff 58 be
       -0.15527764 -0.12226033 0.03993728 -0.21191134
000350 70 2f 31 3e 62 9b 8b be f6 95 31 bd 02 3d 6a 3d
       0.17303252 -0.27266985 -0.043355905 0.057187088
000360 7f 8b 19 3e 6d 6e 90 be 46 21 28 bd ea 26 dc 3e
       0.1499462 -0.28209248 -0.041047357 0.4299844
000370 56 01 82 3e 60 9b 51 be 7a 96 2e bf 09 36 f7 be
       0.25391644 -0.20469427 -0.6819836 -0.48283413
000380 a3 b8 28 3e 17 8a 71 3c f9 3b 0d 3e 9d fc a7 bd
       0.16476683 0.014742396 0.13792409 -0.08202479
000390 0f 21 97 be e8 49 ac 3d b1 d6 76 be f8 80 68 be
       -0.2951741 0.08412534 -0.24105336 -0.22705448
0003a0 d1 ea 43 3e b6 69 61 3e eb f4 6a 3e 5e f5 b3 bd
       0.19132544 0.22012982 0.22944991 -0.087870345
0003b0 0b 7f 09 3d cf 46 f4 3d 7d b3 53 bd 50 1f a6 be
       0.033568423 0.11927568 -0.051684845 -0.32445765
0003c0 d6 45 ac 3c 29 1d 9e be 42 8d 86 be ca f0 fb 3d
       0.021029394 -0.30881622 -0.26279646 0.12301786
0003d0 a8 07 98 3c 55 ab 87 3e 41 b3 0e be 26 ab b2 bc
       0.018558338 0.26497903 -0.13935567 -0.021810126
0003e0 60 3e 59 be ac cc 6a ba d3 4b 8c be c3 aa 63 3e
       -0.212152 -0.000895689 -0.274016 0.22233109
0003f0 27 f5 5a be d2 8a a2 3d 33 46 5f bc f1 15 49 be
       -0.2138258 0.07936634 -0.013627577 -0.19637276

fc2.bias f4 [64]
000000 e2 ea be 3d 43 c0 8c bd b6 52 aa 3d e3 70 99 3d
       0.09322144 -0.068726085 0.08316557 0.074922346
000010 ea 7b b8 3d df 54 3d be ea bf 15 be 1e 15 98 3d
       0.0900801 -0.18489407 -0.1462399 0.07425903
000020 be 56 3a 3e 71 b7 c0 3e 02 cb c9 bc d2 69 ee 3e
       0.18197152 0.37639955 -0.024632934 0.4656511
000030 e1 42 9e 3e 2c c4 c3 3c e6 12 89 bd 36 2e 69 3d
       0.309104 0.023897253 -0.06693058 0.056928836
000040 39 33 d6 3c 11 7d ce 3c 76 7f ce bc b3 9a 08 3e
       0.026147472 0.02520612 -0.025207262 0.13340263
000050 71 6e 69 3e 25 c6 f3 3e 92 7a 8e bd 88 97 20 be
       0.22796036 0.4761211 -0.06956972 -0.15682805
000060 c0 63 0b be 47 7e 1d be e7 33 12 3e 6d 48 fa bc
       -0.1361227 -0.15380202 0.14277612 -0.030552113
000070 3c 45 e7 bd 36 18 08 bc 5b 8c d2 3c 6d 5b 0e 3e
       -0.11292502 -0.008306554 0.025701692 0.13902064
000080 87 d5 43 bd 57 93 44 3e fa e8 94 3c c9 2d 82 3d
       -0.047811057 0.1919683 0.018177498 0.06356389
000090 85 58 f7 bd f6 4b 14 be b9 59 c0 3d d8 b8 26 bd
       -0.12077431 -0.14482102 0.09392113 -0.040703624
0000a0 f5 b0 eb bd bf bd e8 3e 4d b7 d4 3d 7a aa 6a bd
       -0.11508361 0.45457265 0.10386524 -0.057291485
0000b0 9a 7e 75 3e 72 94 a2 bd 45 29 8c 3e b5 3c ac bd
       0.23974076 -0.0793847 0.27375236 -0.084100164
0000c0 e2 2a 21 3b 62 98 ca bc 32 9b 0b be f9 8c ba 3e
       0.002459221 -0.024730865 -0.13633421 0.3643568
0000d0 b7 78 69 3d 59 00 c3 bd 29 9d 0d 3e c3 72 f7 bd
       0.05699989 -0.09521551 0.13829483 -0.12082436
0000e0 49 cd 55 be 30 84 12 be ac db f5 bd f5 e2 03 be
       -0.20879091 -0.14308238 -0.1200479 -0.12879546
0000f0 75 9a e4 bd d2 e0 52 3e 9e 28 e6 3d 12 b4 ac bd
       -0.11162273 0.20593575 0.11238216 -0.08432783

fc3.weight f4 [4, 64]
000000 6e 93 21 bf c1 86 68 3e 90 14 f8 3d b8 48 9c be
       -0.63115585 0.22707655 0.12113297 -0.3052423
000010 09 7c 90 3e 24 0b c1 be 68 72 eb 3d 80 b8 71 bc
       0.2821963 -0.37703812 0.11496431 -0.014753461
000020 c7 44 13 3e cd ce ce 3d 7f 15 a4 be 50 d8 7e 3e
       0.14381705 0.10098038 -0.3204765 0.24887204
000030 f0 ac a3 3d 26 52 62 3e 87 a6 31 bd 92 56 c4 bd
       0.079919696 0.2210165 -0.043371703 -0.095868245
000040 1d 04 8f 3e a4 03 60 3e bf 68 01 be 11 a3 f7 3d
       0.27932826 0.21876389 -0.12637614 0.12091649
000050 8f d8 ee 3d a1 dc 24 3e 74 48 37 bd f7 5c c9 be
       0.11662399 0.16099788 -0.04474683 -0.3932874
000060 85 e7 00 be 3a 03 50 be b6 46 db 3e 4d 83 39 3e
       -0.12588318 -0.20313731 0.42827386 0.18116494
000070 80 e4 fa 3d 05 d7 fc 3d 2a 6f 65 bd 5e b9 17 3e
       0.12250614 0.12345699 -0.056014217 0.14816806
000080 3e 94 09 3e 84 ab 97 3e 76 bc e4 3d ae 45 27 be
       0.13435456 0.29623044 0.111687586 -0.16335174
000090 17 ce 9a 3d 3f 96 af bd 9b d3 19 3e d9 db a9 3d
       0.0755884 -0.08573579 0.15022127 0.08293886
0000a0 e2 f0 b7 bc d8 c0 f4 3d 9a 13 6e 3e 17 5b f5 bb
       -0.022453729 0.119508445 0.23249665 -0.0074876654
0000b0 38 a7 10 3e 41 a6 9f 3d 4b fa 3c 3e 5e ed 54 3c
       0.14126289 0.07795382 0.18454854 0.012996046
0000c0 fd af cc bd ea be 8e 3e aa 49 12 be 8f 39 6f 3e
       -0.099945046 0.2788003 -0.14285913 0.233618
0000d0 7b 3f f7 3d a7 77 bd be e5 1d fd 3d 2c aa 0a 3d
       0.12072655 -0.3700535 0.123592176 0.033853695
0000e0 19 64 f7 bb f7 7a 80 bc e8 cb 2e bc dc 56 43 3e
       -0.0075497744 -0.015683634 -0.010668732 0.19076103
0000f0 8b 4c ab be 99 33 46 3e ac 0c 1d 3e 4d 1e 1c 3e
       -0.33456835 0.1935562 0.15336865 0.15245934
000100 4e 8b 5d bd 25 55 79 3e bb 44 57 3e cb 2c 35 be
       -0.05408793 0.24348886 0.21022312 -0.17692868
000110 51 09 8d 3e f0 7a 4d be 7c c6 5a bc 3c a9 08 3e
       0.2754617 -0.20066428 -0.013352986 0.13345808
000120 a1 1a 8d 3d 79 8e c5 3d 50 bf 0e 3c 6c ad 21 3e
       0.06889845 0.09646315 0.008712605 0.15788811
000130 1b 4d 5f 3d af c0 90 3e a0 8a e6 39 82 db 03 3d
       0.054516893 0.28272006 0.00043972302 0.03219176
000140 63 1f d5 3e bf 3f 4d 3e d8 09 b1 be 9a fa 17 3e
       0.4162551 0.20043848 -0.34577823 0.1484169
000150 21 30 30 3e 05 b7 4a 3e 26 b6 27 be 44 c9 a3 be
       0.1720586 0.19796379 -0.16378078 -0.3198949
000160 72 47 13 be d3 44 69 be f9 c4 cd 3e ed b3 22 3e
       -0.14382723 -0.2278016 0.4018934 0.15888949
000170 52 84 9c be d0 9f da 3e f7 9e 2f 3b bb f0 ef 3d
       -0.30569702 0.42700052 0.0026797631 0.117158376
000180 d5 c4 45 be e6 05 8c 3e 7f 4e 74 3e b2 6d be 3d
       -0.19313367 0.2734825 0.23858069 0.092982665
000190 99 3e d4 3d e8 0c a7 bd 0a 9a 59 3d dd 28 99 3e
       0.10363502 -0.081567585 0.05312542 0.2991399
0001a0 bb 11 90 3d 85 26 1f 3e b3 5e 91 3e df f9 45 3e
       0.07034632 0.15542038 0.28392562 0.193336
0001b0 9c 5e ce 3d ca b2 cd 3d 65 47 17 3e e0 a4 5b 3d
       0.10076639 0.10043867 0.14773329 0.053624034
0001c0 0a d1 c6 bd a3 4f 65 3e cc 4a 41 bd e5 32 c7 3d
       -0.0970784 0.2239366 -0.047190472 0.09726504
0001d0 f1 bf 22 3e a7 76 49 3c 54 39 3a 3e 78 4d 12 3e
       0.15893532 0.012296355 0.18185931 0.14287364
0001e0 31 46 2e be a4 b3 1f 3e ef 8f 82 bd 3a 1b 1a be
       -0.17018963 0.15595871 -0.063751094 -0.15049449
0001f0 85 5d 23 be 9c 09 e6 3d cd 69 59 3e f1 f6 c6 3d
       -0.15953644 0.112323016 0.21231766 0.09715069
000200 e5 da 67 3d 8d 13 0a bd a3 20 a6 3e 43 88 9b be
       0.05660524 -0.03371005 0.32446775 -0.30377397
000210 11 94 1c 3f ab fa a4 bd a4 f9 f6 3d f1 83 11 3e
       0.6116343 -0.080556236 0.12059334 0.14210488
000220 eb 9b ba 3d ad 9c 06 3e c6 fb 1b bf 56 4b 45 3e
       0.0911177 0.13145705 -0.6093105 0.1926702
000230 99 b2 49 3e fd 3f 8b bd 25 98 ce bd 70 ff 31 3e
       0.19697036 -0.06799314 -0.10087613 0.17382598
000240 9c 8b e1 3d 2f ee f9 3d 6d bf 72 bc 3d 2e 04 3e
       0.110129565 0.12203633 -0.014816147 0.12908264
000250 4e 14 41 3e b1 de 6c 3e 90 82 46 be fe 80 3f be
       0.18855402 0.23131825 -0.19385743 -0.1870155
000260 1a 14 c3 bc fb 26 4f be 89 e2 0d 3f 34 ec 1b 3e
       -0.023813296 -0.20229714 0.5542379 0.15226823
000270 92 e2 c9 3e 7b 1a 28 3f c9 7a 4b 3d 23 05 8b bc
       0.39430672 0.65665406 0.049677644 -0.016970223
000280 91 db 45 3c 31 1d 35 3e dd 22 a9 3e b5 02 31 bd
       0.0120762745 0.17686917 0.3303441 -0.043215472
000290 48 dd 8d 3e 79 d4 b6 bd 57 fb 89 3e c5 a1 08 3e
       0.27707887 -0.08927245 0.2694957 0.1334296
0002a0 cb 80 e9 3c f6 0f 1b 3e 01 70 8d 3e 9b ea 8c bd
       0.028503796 0.15142807 0.27624515 -0.06880685
0002b0 1a a7 43 3d 2e f7 af 3e 9b 01 cc 3d d7 56 e4 3e
       0.047766782 0.3436827 0.09961244 0.44597504
0002c0 12 f8 6c 3d 5f 21 a3 3c ee ce 0f 3c 5d 25 91 3e
       0.057853766 0.019913374 0.008777363 0.28348818
0002d0 87 30 02 3e be 85 a1 bd bd 50 cf 3d 75 00 d6 3e
       0.12713824 -0.078868374 0.101228215 0.41797224
0002e0 50 c2 a9 bd 2c 4a 4a 3e 48 82 67 be 94 75 0e 3e
       -0.08289015 0.19754857 -0.22608292 0.1391204
0002f0 66 42 e8 bc e2 6f 21 3e 0c a8 fe bc b5 c1 cb be
       -0.028351974 0.15765336 -0.03108599 -0.39796224
000300 53 d1 9d 3e 73 a1 ef 3e b7 b6 94 3d a9 65 bb be
       0.30823764 0.46802863 0.072614126 -0.36600998
000310 06 8e 73 3e 4c 81 56 be 7b 57 d7 bc 47 84 76 3e
       0.23784646 -0.2094776 -0.026286831 0.24073897
000320 b6 1f a3 3d e9 63 36 3e 95 2f ec bc ce f2 c6 3d
       0.07965033 0.1781155 -0.028831283 0.0971428
000330 a9 17 16 3e 73 5d 9f 3e 37 5b 40 3d 6f ab 2b 3d
       0.14657463 0.31125984 0.04696199 0.04191154
000340 5f 41 eb 3e 3b 21 11 3e 5e 4c 73 3e 70 8b 62 3e
       0.45948312 0.14172833 0.237596 0.22123504
000350 4d 6d 4d 3d 3d 4c 41 3e 53 01 45 be 04 b8 8e bd
       0.050153065 0.18876739 -0.19238786 -0.06968692
000360 95 36 53 be a9 95 98 be 82 10 7b 3e d6 0d d8 3e
       -0.2062629 -0.29801682 0.24518016 0.42198056
000370 0e f7 96 3e 3b 44 a7 3d 9b 84 55 3e 8c 26 fd 3d
       0.29485363 0.08167311 0.20851366 0.12360868
000380 b6 82 ac be a9 4a 8f 3e 94 6f 3f bd 9d 03 11 3e
       -0.33693475 0.2798665 -0.04673727 0.14161535
000390 3a 8a ca bd 97 85 79 3c 38 bc b6 3e 6a ed b2 3e
       -0.09889646 0.015229604 0.35690475 0.34946758
0003a0 6d 5f 8d be c4 90 49 3e 99 30 be 3e 4e b4 d4 be
       -0.27611867 0.1968413 0.37146452 -0.41543812
0003b0 54 2d f6 3d e3 da 94 be 94 75 e1 3d c1 af c3 3e
       0.120203644 -0.29073247 0.110087544 0.38220027
0003c0 bd 6f 80 3d 06 ba d3 bc 0b 74 95 3e f6 e4 9b 3e
       0.062713124 -0.025845539 0.29190096 0.3044812
0003d0 e2 80 b3 3e 79 cd 97 be 26 d5 83 3e 93 3e 8d be
       0.35059267 -0.2964895 0.25748557 -0.27586803
0003e0 3b 6b a9 be 7b cc 1e bf f8 a2 26 be 6d 94 06 bc
       -0.33089623 -0.6203076 -0.16273105 -0.008214098
0003f0 1a 8c f7 be 91 3f 67 3d 18 51 af 3d 4b 4f da 3c
       -0.48349077 0.056457106 0.08560389 0.026649138

fc3.bias f4 [4]
000000 20 a8 8c 3e 2c ba 78 3e 17 8b 15 3e 03 81 30 3e
       0.2747202 0.24289769 0.1460384 0.17236714
